model/model.pth (torch, 16799 bytes, 4 tensors)

linear1.weight f4 [256, 11]
0	0xbe9de312	-0.30837303
1	0xbadd9696	-0.001690584
2	0xbc6250e8	-0.013813235
3	0x3e85c339	0.26125506
4	0xbed14d42	-0.40879256
5	0x3e8aae56	0.27086133
6	0xbeff4204	-0.49855053
7	0xbeb6da66	-0.357135
8	0x3eac53c3	0.33657655
9	0xbeb9c146	-0.36280268
10	0x3f015f46	0.50536
11	0xbc900e40	-0.01758492
12	0xbe534b40	-0.20634174
13	0xbe125059	-0.14288463
14	0x3df02933	0.11726608
15	0xbe861bd4	-0.26193106
16	0x3c4ac900	0.012377024
17	0xbe32c1e2	-0.17456773
18	0x3c1694fc	0.009190794
19	0xbe34989a	-0.17636338
20	0xbd1b1617	-0.037862863
21	0xbe3ab458	-0.18232858
22	0x3ec2fe12	0.38084465
23	0xbe07171d	-0.13192411
24	0xbede2e4f	-0.43394706
25	0x3d325ea7	0.0435473
26	0x3d96cd7a	0.0736341
27	0xbe892ad1	-0.2679048
28	0xbe3bcb37	-0.18339239
29	0x3dc44014	0.095825344
30	0xbde9e837	-0.114212446
31	0xbe928b4e	-0.28621906
32	0xbd8b8d75	-0.0681409
33	0xbd5c0b8c	-0.05372195
34	0xbb954a00	-0.0045559406
35	0xbbd32900	-0.0064440966
36	0x3e3c985a	0.18417493
37	0xbdb2015a	-0.08691664
38	0xbe06ea83	-0.13175397
39	0xbe699b86	-0.22813234
40	0x3d484987	0.048898246
41	0xbe24b0d7	-0.16083084
42	0xbdff420a	-0.12463768
43	0xbe8e3c08	-0.27780175
44	0x3e349a7f	0.1763706
45	0xbf041fc7	-0.5161099
46	0x3ecea03f	0.40356633
47	0x3c75083d	0.014955577
48	0xbee79e4f	-0.45237967
49	0xbe01fcc6	-0.12694082
50	0x3dbc80b5	0.092042364
51	0x3cc7206c	0.024307452
52	0x3ee30e99	0.44347075
53	0x3e94223d	0.28932372
54	0xbd080f66	-0.03321781
55	0x3e203838	0.15646446
56	0xbe8ddef8	-0.27709174
57	0x3c3e8b89	0.011629947
58	0xbea09c45	-0.31369224
59	0x3eea7d12	0.45798546
60	0xbecc8f78	-0.39953208
61	0xbe7b06bd	-0.24514289
62	0xbee95756	-0.45574445
63	0x3e28bc3e	0.16478059
64	0xbeba4c4d	-0.36386338
65	0x3d8713d1	0.065955766
66	0xbf67e8f3	-0.9058983
67	0xbdf0caa3	-0.117574
68	0x3ee7caec	0.45272005
69	0x3cfebc61	0.031095685
70	0x3e87a8fd	0.26496115
71	0x3da1f906	0.079088256
72	0x3d8d3c9c	0.06896326
73	0x3dbb4a16	0.0914499
74	0xbeba309b	-0.36365208
75	0xbda4a038	-0.08038372
76	0xbe0e2c6d	-0.13884135
77	0xbd147c1d	-0.036251176
78	0x3e56f044	0.20990092
79	0x3ea4a768	0.3215897
80	0xbe78ef39	-0.24310006
81	0x3db4bcd2	0.08825077
82	0xbd9e6e06	-0.07735829
83	0xbce7bb86	-0.02828766
84	0x3ec2147b	0.3790625
85	0x3e8c3a99	0.27388456
86	0x3ee5f3f1	0.44912675
87	0x3ec1f37d	0.3788108
88	0x3d35de44	0.044401422
89	0x3f1638ee	0.5868062
90	0xbf283764	-0.6570952
91	0xbe707a95	-0.23484261
92	0x3db3f2a3	0.08786514
93	0x3e05db1e	0.13071868
94	0xbe89d253	-0.26918277
95	0x3e78879a	0.24270478
96	0xbd8a139b	-0.06742021
97	0x3e7acec8	0.24492943
98	0x3d104e1d	0.035230745
99	0xbcc2cfbb	-0.023780694
100	0x3cf6ecf7	0.03014229
101	0x3e553cd4	0.20823985
102	0x3da0792f	0.07835614
103	0xbeb33739	-0.3500307
104	0x3e94082b	0.28912482
105	0xbe6b0c6b	-0.22953956
106	0x3dfc96df	0.12333464
107	0xbee058c3	-0.4381772
108	0xbe8342fc	-0.25637043
109	0x3e9efc6c	0.31051958
110	0xbf01acaa	-0.5065409
111	0x3db3842c	0.08765444
112	0xbecc9d6c	-0.39963853
113	0x3d7c7a91	0.061640326
114	0xbe0d36b9	-0.13790406
115	0x3d3b6856	0.0457538
116	0x3c0b6e64	0.008510206
117	0xbc820837	-0.015873058
118	0xbe18becd	-0.14916535
119	0xbde212c9	-0.11038739
120	0xbce963bd	-0.028489942
121	0xbdc0b488	-0.094094336
122	0xbd917ca8	-0.071038544
123	0xbd1bc36a	-0.03802816
124	0x3e102daf	0.14079927
125	0xbf167879	-0.58777577
126	0x3dca2f67	0.098723225
127	0xbf148946	-0.5802196
128	0xbf3de440	-0.74176407
129	0xbf11f6f7	-0.57017463
130	0x3eb97ecd	0.36229554
131	0xbebd6cf9	-0.36997202
132	0xbe376635	-0.17910083
133	0xbe9041e0	-0.2817526
134	0x3edb66b2	0.42851788
135	0xbe4ea316	-0.201794
136	0x3d258bd0	0.04041654
137	0xbe929d62	-0.286357
138	0xbe27f07d	-0.16400333
139	0x3ea76426	0.32693595
140	0x3e8087dd	0.25103655
141	0x3e86ac51	0.26303342
142	0x3e56d666	0.20980224
143	0xbd514209	-0.051088367
144	0xbeb5cf50	-0.3550973
145	0x3e7dd0a9	0.24786629
146	0x3e27d665	0.16390379
147	0xbf023378	-0.50859785
148	0x3e43ab70	0.19108367
149	0x3e875bc1	0.2643719
150	0xbcd928ab	-0.02650865
151	0xbf1e13e4	-0.617491
152	0x3e67272c	0.22573537
153	0xbda1c504	-0.07898906
154	0xbd043422	-0.03227628
155	0x3eb0d94d	0.34540787
156	0x3c998088	0.018738046
157	0xbe936006	-0.28784198
158	0xbe8c6489	-0.27420452
159	0xbe3dee95	-0.18548043
160	0xbeca0903	-0.3946
161	0x3e1f2613	0.15541868
162	0x3d1b6de6	0.037946604
163	0xbde605df	-0.112315886
164	0x3e1bcd34	0.15214998
165	0xbe1e525d	-0.15461107
166	0xbd439815	-0.04775246
167	0x3dd13fd0	0.102172494
168	0xbf37ba9f	-0.71769136
169	0xbd3e0af8	-0.04639718
170	0xbda53c65	-0.0806816
171	0x3ecbe8f3	0.39826164
172	0xbd8f6a48	-0.070026934
173	0xbf0c3480	-0.5476761
174	0xbf1d1071	-0.6135321
175	0x3ea76e2e	0.32701248
176	0x3d2105ab	0.039312046
177	0x3eb22884	0.34796536
178	0x3e44b1d0	0.19208455
179	0x3d7900e2	0.060791858
180	0xbe6c3c4e	-0.2306988
181	0x3dad59e6	0.084644124
182	0xbedbc277	-0.42921802
183	0x3d6270ad	0.055283237
184	0x3e85432c	0.2602781
185	0x3d81bf73	0.06335344
186	0x3e9ceeb4	0.30650866
187	0x3e8402b0	0.257833
188	0xbe0e0172	-0.13867739
189	0x3dfa55d5	0.122234024
190	0xbee30277	-0.44337818
191	0xbf137a11	-0.57608134
192	0x3eaca998	0.3372314
193	0x3e05abd7	0.13053833
194	0x3e9113c9	0.28335407
195	0x3ebf6126	0.37378806
196	0xbeec7d20	-0.46189213
197	0xbe0c4eef	-0.13701986
198	0xbcf9362f	-0.030421345
199	0xbdb3079d	-0.087416865
200	0x3d7201c4	0.059083715
201	0xbed5faba	-0.41792852
202	0x3e8bc12e	0.27295822
203	0x3e398874	0.18118459
204	0xbec96a9d	-0.39339152
205	0xbe1c2bb1	-0.15251042
206	0x3ef1049c	0.4707383
207	0xbf0fe186	-0.56203496
208	0xbea82d35	-0.3284699
209	0xbd9ad867	-0.07560807
210	0x3da75e87	0.081723265
211	0xbeac7bec	-0.33688295
212	0xbe300a46	-0.17191419
213	0xbe8a957a	-0.27067167
214	0xbeb818f1	-0.3595653
215	0xbe239894	-0.15976173
216	0x3d5304b9	0.051518176
217	0xbe016f79	-0.1264018
218	0xbe179a55	-0.14804967
219	0x3dfef8ec	0.12449822
220	0x3e88398a	0.266064
221	0xbe902be0	-0.28158474
222	0xbf385f36	-0.7202028
223	0x3e9eac55	0.30990854
224	0xbd6b90f1	-0.057511274
225	0xbea527ed	-0.32257023
226	0x3dc7ff8d	0.09765539
227	0xbe59aa5b	-0.21256392
228	0x3d6771ce	0.056505017
229	0xbeccfa45	-0.4003469
230	0x3d01b3f2	0.03166575
231	0x3f1d3f65	0.6142486
232	0xbd9ca75d	-0.076491095
233	0xbda8d8ac	-0.08244452
234	0xbed59022	-0.41711527
235	0x3e83e522	0.25760752
236	0xbdbbc5bd	-0.09168575
237	0x3ecd0964	0.40046227
238	0x3f08dd65	0.5346282
239	0xbe34c197	-0.17651974
240	0x3e407179	0.18793286
241	0xbe90715e	-0.28211492
242	0x3d6c8f00	0.057753563
243	0xbe860d62	-0.26182085
244	0xbeb2fd56	-0.34958905
245	0x3ebf99c1	0.37421992
246	0x3ed93be6	0.4242851
247	0xbe871eb7	-0.2639062
248	0x3e1f056f	0.15529417
249	0xbe23e355	-0.16004689
250	0xbe3a2e89	-0.18181814
251	0xbf3ca660	-0.7369137
252	0xbe3c457f	-0.18385886
253	0xbdc389bf	-0.09547757
254	0x3e786d8f	0.24260543
255	0xbf1014bc	-0.5628164

linear1.bias f4 [256]
0	0x3d2b734e	0.04185801
1	0xbe0419bd	-0.12900443
2	0xbea7084a	-0.32623512
3	0xbe89da24	-0.2692424
4	0xbdd008f5	-0.101579584
5	0x3d18a23c	0.037264094
6	0x3f15fee1	0.5859204
7	0xbe7b1d0c	-0.24522799
8	0xbdb8d059	-0.09024114
9	0x3b8322fd	0.0040019737
10	0xbe3591b6	-0.17731366
11	0x3e24c4d0	0.16090703
12	0xbdb60d6c	-0.08889279
13	0x3f099133	0.5373718
14	0xbdd9fd50	-0.10644019
15	0xbd57b2e7	-0.05266085
16	0xbe8dc51f	-0.27689454
17	0x3cf52688	0.0299256
18	0xbdcceea4	-0.100064546
19	0xbe39d957	-0.18149315
20	0xbd4dd341	-0.050250296
21	0xbcc3a64d	-0.02388301
22	0x3f442fbc	0.76635337
23	0x3d6b173b	0.0573952
24	0x3e9b9f8c	0.30395162
25	0x3ea62bab	0.3245519
26	0xbe049cee	-0.12950489
27	0x3b95437e	0.004555165
28	0xbd9742a5	-0.07385758
29	0xbd7f01f3	-0.06225772
30	0x3ec483f7	0.3838193
31	0xbc249733	-0.010045814
32	0xbe45633d	-0.19276138
33	0xbe2f8a4f	-0.17142604
34	0xbe3b9b18	-0.18320882
35	0xbe491bf5	-0.19639571
36	0xbe211f19	-0.15734519
37	0x3e3c7e59	0.18407573
38	0x3f3726d3	0.71543616
39	0x3ef21231	0.47279504
40	0x3ea56255	0.32301584
41	0x3d08b16a	0.03337232
42	0x3c595aad	0.013266248
43	0xbdfea166	-0.12433128
44	0xbecc7ffe	-0.399414
45	0x3ec850ed	0.3912424
46	0xbe759611	-0.23983027
47	0xbda58573	-0.08082094
48	0x3e0f9b39	0.14024056
49	0xbe8f0689	-0.27934673
50	0x3f26f379	0.6521526
51	0x3cde8ee0	0.027167737
52	0xbe4a97cc	-0.19784468
53	0x3d81f95b	0.06346389
54	0xbea64c24	-0.32479966
55	0xbe1472b2	-0.14496878
56	0x3d707323	0.058703553
57	0xbe4a389d	-0.19748159
58	0xbe76e7ae	-0.24111816
59	0xbebda4b1	-0.37039712
60	0xbe9fb01e	-0.31189054
61	0x3da0c824	0.07850674
62	0x3c2a3ff4	0.010391224
63	0xbe1a6593	-0.1507781
64	0x3c7c6987	0.015406019
65	0xbd684797	-0.0567089
66	0xbd418660	-0.04724729
67	0xbebccf48	-0.36876893
68	0xbdf83411	-0.12119306
69	0xbec56f79	-0.3856161
70	0xbe99f83d	-0.30072203
71	0xbddbc534	-0.10730973
72	0xbe3b2df7	-0.18279253
73	0x3d295987	0.041345146
74	0x39be1a9c	0.0003625945
75	0xbe5975f1	-0.21236397
76	0xbdf3e655	-0.11909167
77	0xbdbdda8c	-0.092702
78	0xbdb01750	-0.085981965
79	0x3efaf310	0.49013567
80	0xbedc5e55	-0.4304072
81	0x3e01a2e2	0.12659791
82	0xbe07a850	-0.132478
83	0x3cfe3b52	0.031034146
84	0xbd9cf065	-0.07663039
85	0x3b2f3de3	0.0026739768
86	0xbe7c87b9	-0.24661149
87	0xbe31cd07	-0.17363368
88	0xbe99a0b5	-0.30005422
89	0xbe62e786	-0.22158632
90	0xbdc94b55	-0.098288216
91	0x3c6e97fe	0.014562605
92	0xbd926d1d	-0.07149718
93	0xbe3e57dd	-0.18588205
94	0xbe94f89f	-0.29095933
95	0xbe9f20b6	-0.31079644
96	0x3dc6411b	0.09680387
97	0x3e2ec02d	0.17065497
98	0x3e64b15b	0.2233328
99	0xbe13befb	-0.14428322
100	0xbeb47d4b	-0.3525184
101	0xbe1033c7	-0.14082251
102	0xbe04b007	-0.12957774
103	0x3df3c0f7	0.119020395
104	0xbe278ec2	-0.16363052
105	0xbe0c196b	-0.13681571
106	0x3d9e8047	0.07739311
107	0xbe4935dc	-0.19649452
108	0x3e1d812d	0.15381308
109	0x3dc41166	0.09573631
110	0xbd7d90e1	-0.061905745
111	0x3d743722	0.05962289
112	0x3e01bd03	0.12669758
113	0xbe59805b	-0.2124037
114	0xbd12ca9c	-0.035837755
115	0xbe1cfe7c	-0.15331453
116	0xbe3d926e	-0.1851289
117	0xbee4a685	-0.44658294
118	0x3f34a80e	0.7056893
119	0xbeaf6294	-0.34254897
120	0x3caad24d	0.020852232
121	0x3d8d5a05	0.069019355
122	0xbec9ce8d	-0.39415398
123	0xbe972325	-0.29519
124	0x3c0bb083	0.00852597
125	0xbe8f51ea	-0.27992183
126	0xbe9d49fd	-0.3072051
127	0xbe000339	-0.1250123
128	0x3eb33a35	0.35005346
129	0xbe6033bd	-0.21894737
130	0xbe9aa8b7	-0.30206844
131	0xbe261291	-0.1621802
132	0xbe109a80	-0.14121437
133	0xbdf634e0	-0.12021804
134	0x3f099bc9	0.53753334
135	0x3d8fc54f	0.070200555
136	0xbea81594	-0.32828963
137	0xbe8fd5e7	-0.28092882
138	0x3e6d5109	0.23175444
139	0xbe462809	-0.1935121
140	0xbd0d5397	-0.034503546
141	0x3dcd6786	0.10029511
142	0x3d2a5680	0.0415864
143	0xbd300c52	-0.0429805
144	0x3dd58490	0.10425675
145	0x3e000e15	0.12505372
146	0xbe135e84	-0.14391524
147	0x3ea5c384	0.3237573
148	0x3e2b20c4	0.16711718
149	0x3e57a6ff	0.21059798
150	0x3e1f70b2	0.15570334
151	0x3e77a6db	0.24184744
152	0xbe15aefd	-0.14617534
153	0x3e080a91	0.13285281
154	0xbb74c4f8	-0.0037348848
155	0x3ca998c3	0.020702725
156	0xbeac106f	-0.33606288
157	0xbec7c2ed	-0.39015904
158	0x3e10adb2	0.1412876
159	0xbd9ac1b3	-0.075564764
160	0xbe96ea06	-0.2947542
161	0xbe7bd12e	-0.24591514
162	0x3e8690d9	0.26282385
163	0xbdc8dea1	-0.09808088
164	0xbcb9eae5	-0.022695014
165	0xbe96a28a	-0.29420882
166	0xbdef0a9e	-0.11671947
167	0x3e87991c	0.26484
168	0x3e1c37c5	0.1525565
169	0xbed3453a	-0.41263753
170	0x3da30586	0.07960038
171	0xbc0419b6	-0.008062771
172	0xbccfc320	-0.025361598
173	0x3cc5b4d7	0.024134083
174	0xbe20c939	-0.1570176
175	0xbe79691c	-0.24356502
176	0x3f07b8d0	0.53016376
177	0xbcc1f60d	-0.023676896
178	0x3e54a79a	0.2076706
179	0xbe8827e1	-0.26592925
180	0xbea9aafa	-0.33138257
181	0x3e0e0c7a	0.13871947
182	0x3d4b8594	0.049687937
183	0xbe5657f4	-0.20931989
184	0xbea9a508	-0.3313372
185	0x3cb7e8ee	0.022449937
186	0x3e151948	0.14560425
187	0x3f1cd85d	0.61267644
188	0xbe198246	-0.14991102
189	0x3e6b348f	0.22969268
190	0xbdfbd065	-0.122956075
191	0x3e156c9e	0.14592215
192	0x3ec98cbc	0.39365184
193	0xbe13ab5e	-0.1442084
194	0xbe6b60c4	-0.22986132
195	0xbe2eb437	-0.17060934
196	0xbeb28b7b	-0.3487204
197	0xbeaf6d6b	-0.34263167
198	0xbe7b5813	-0.24545316
199	0x3c8953d5	0.016763607
200	0x3bc937f5	0.006140704
201	0x3e856ab9	0.26057985
202	0xbe87f306	-0.265526
203	0xbe0b88b9	-0.13626374
204	0xbbb43d56	-0.005500476
205	0xbe98ed56	-0.29868573
206	0x3c93bf53	0.018035566
207	0xbe4d780e	-0.20065328
208	0xbdf34002	-0.11877443
209	0xbe0ce89e	-0.13760611
210	0xbd6601f9	-0.056154225
211	0xbe94e19c	-0.29078376
212	0xbea298b0	-0.31757116
213	0xbcd29005	-0.02570344
214	0xbdfd2cfd	-0.123620965
215	0xbe8309a3	-0.2559329
216	0x3e90e46b	0.2829927
217	0x3d64e251	0.055879895
218	0x3e0e4e7f	0.13897131
219	0xbeb2557f	-0.34830853
220	0xbe31e105	-0.17370994
221	0xbe3c4784	-0.18386656
222	0x3f431aaa	0.7621256
223	0x3f244118	0.64161825
224	0xbd0f34b5	-0.034962375
225	0xbe9173d3	-0.2840868
226	0x3cff66ce	0.03117695
227	0xbeefecdc	-0.46860397
228	0x3db8b681	0.09019185
229	0x3dd0de79	0.10198683
230	0xbe92e48a	-0.28689986
231	0xbe5052d6	-0.203441
232	0xbe5991f4	-0.21247083
233	0xbda0f242	-0.07858707
234	0xbe90ca7e	-0.2827949
235	0xbe614849	-0.22000231
236	0xbe464fc5	-0.19366367
237	0x3e0092ed	0.12556048
238	0xbe45b6e5	-0.1930805
239	0xbdc0e2ee	-0.094182834
240	0x3bd1e82b	0.0064058504
241	0xbcb641ea	-0.022248227
242	0xbcc27a8e	-0.02374008
243	0xbe63d52e	-0.2224929
244	0x3ea74de4	0.32676613
245	0xbef47784	-0.47747433
246	0xbe933937	-0.2875459
247	0xbe0dffb0	-0.13867068
248	0xbe0801bd	-0.13281913
249	0xbeb6fd6e	-0.35740227
250	0xbe5645c6	-0.20925054
251	0xbe905d9d	-0.2819642
252	0xbea475a2	-0.32120997
253	0xbe13ddc9	-0.14440073
254	0xbbfacc23	-0.0076537295
255	0x3e198331	0.14991452

linear2.weight f4 [3, 256]
0	0xbef49295	-0.47768083
1	0xbd6d8a4c	-0.05799322
2	0xbea76c44	-0.32699788
3	0x3c009c8d	0.007849825
4	0xbe0a8772	-0.13528231
5	0x3e44de19	0.19225349
6	0x3e986f25	0.29772297
7	0xbdbe5439	-0.09293408
8	0x3a8e9958	0.001087944
9	0x3d010f03	0.031508457
10	0xbb997326	-0.004682916
11	0x3e34b2b2	0.17646292
12	0x3c22def1	0.009940849
13	0x3eba3394	0.36367476
14	0x3c950100	0.018188953
15	0x3e7ea32c	0.24866933
16	0xbdbe1aa7	-0.09282427
17	0xbe846995	-0.25861803
18	0x3e57ccfc	0.21074289
19	0xbc102ba6	-0.008799469
20	0xbd03d22f	-0.03218287
21	0xbf15ca8d	-0.5851219
22	0x3ee9ef0d	0.45690194
23	0x3cf9df6a	0.03050204
24	0x3ea1bae7	0.31587908
25	0x3df9592d	0.12175212
26	0xbde1bcf3	-0.11022367
27	0xbea43df9	-0.3207853
28	0xbce70a82	-0.028203253
29	0x3ea1d32f	0.31606433
30	0x3f0feba6	0.56218946
31	0xbeeb3a26	-0.459428
32	0xbe87bb6f	-0.26510188
33	0xbe7f01f0	-0.24903083
34	0xbef46fa2	-0.4774142
35	0xbd2e3110	-0.04252726
36	0xbec4c895	-0.38434282
37	0x3f0e6559	0.55623394
38	0x3ed5d2df	0.41762444
39	0x3edfd052	0.43713623
40	0x3ebf894f	0.37409446
41	0x3d8c01c3	0.068362735
42	0xbd749905	-0.059716243
43	0x3d26ea13	0.040750574
44	0x3a1bbdd8	0.00059410697
45	0x3edee1b8	0.43531585
46	0x3df21dc1	0.11822081
47	0x3e5ff006	0.21868905
48	0x3edffcb4	0.43747485
49	0xbe7b2b1d	-0.24528165
50	0x3e88adf4	0.26695216
51	0x3dc527ba	0.09626718
52	0xbe022243	-0.12708382
53	0x3f00d722	0.50328267
54	0xbdf67ec2	-0.12035896
55	0xbe882a99	-0.26595
56	0xbe5bb4cc	-0.21455687
57	0xbc2574d0	-0.010098651
58	0x3e492e71	0.19646622
59	0x3cb48f2b	0.022040924
60	0xbae4f035	-0.0017466607
61	0xbedf6051	-0.4362817
62	0xbc5d3b40	-0.013502896
63	0xbe8548c3	-0.26032075
64	0x3e51f4b1	0.20503499
65	0x3c3c3c90	0.011489049
66	0x3e755c2a	0.23960939
67	0x3da80e5a	0.08205862
68	0x3e68e531	0.2274368
69	0xbcd56e13	-0.026053464
70	0xbbcbc933	-0.006219053
71	0xbe4471d4	-0.19184047
72	0xbf03c1fd	-0.5146788
73	0xbdb4c1a2	-0.08825995
74	0xbef7241e	-0.48269743
75	0xbd046a92	-0.032328196
76	0xbcf79706	-0.03022338
77	0x3b974714	0.0046166275
78	0xbe17a49e	-0.1480889
79	0x3d9cdb84	0.07659057
80	0xbe257bd9	-0.16160525
81	0xbce9e8f6	-0.028553467
82	0xbdc9341a	-0.09824391
83	0xbb6d41be	-0.0036202515
84	0xbebd93b2	-0.37026745
85	0xbe0c8921	-0.13724186
86	0xbe531510	-0.20613503
87	0xbd1d197b	-0.03835438
88	0xbdb0d1ac	-0.08633742
89	0xbd00d745	-0.031455297
90	0x3d9a704b	0.075409494
91	0xbbea0a4e	-0.0071423417
92	0x3b56b9a1	0.0032764452
93	0xbe570641	-0.2099848
94	0x3c8caa58	0.01717107
95	0xbe8a0d3e	-0.26963228
96	0x3daa431d	0.08313582
97	0x3efe87dd	0.4971303
98	0x3d6ecefc	0.058302864
99	0xbe85011f	-0.25977418
100	0xbdf42f53	-0.11923089
101	0x3d26fd59	0.040768955
102	0x3e7467cc	0.2386772
103	0x3e8414c7	0.25797102
104	0xbdc4ce78	-0.09609693
105	0x3e86ddfd	0.2634124
106	0xbe49f5d8	-0.19722688
107	0xbeefd158	-0.46839404
108	0x3ebd16b5	0.36931387
109	0x3eab7c21	0.3349314
110	0xbd8930b2	-0.06698741
111	0x3baacc98	0.0052123778
112	0x3e218d72	0.15776613
113	0x3e7225dc	0.23647255
114	0xbe9764a8	-0.29568982
115	0xbd77fbe5	-0.06054296
116	0xbefda1fc	-0.49537647
117	0xbc361e3b	-0.011115606
118	0x3e7fdfc9	0.24987711
119	0x3d004432	0.031315036
120	0x3e853ee4	0.26024544
121	0x3e92304c	0.28552473
122	0xbc8cc985	-0.017185936
123	0xbda531ae	-0.08066116
124	0x3c6744b9	0.014115506
125	0xbbf0d03b	-0.0073490418
126	0xbcdacc60	-0.026708782
127	0x3eb63e7d	0.3559455
128	0x3eeb0689	0.45903423
129	0xbe0d4888	-0.137972
130	0xbd2966f0	-0.041357934
131	0xbd51e067	-0.051239397
132	0xbe95302c	-0.29138315
133	0xbbc8fe20	-0.0061338097
134	0x3e35c01f	0.1774907
135	0xbe278b44	-0.1636172
136	0xbc8e4e0f	-0.017371206
137	0xbe219b7f	-0.15781973
138	0x3ea86360	0.32888317
139	0xbdcfe751	-0.10151542
140	0x3ecabbc2	0.39596373
141	0x3c3c50b2	0.011493849
142	0x3bdfa685	0.0068252706
143	0x3c54240d	0.012948048
144	0x3e7af17b	0.2450618
145	0x3de25562	0.11051442
146	0xbeccf40e	-0.4002995
147	0x3eaa5cc5	0.33273903
148	0x3e3b2f7d	0.18279834
149	0x3e59e90f	0.21280311
150	0x3be09eb3	0.006854856
151	0x3e85d6fe	0.2614059
152	0xbef1abb3	-0.4720131
153	0x3d134e39	0.03596327
154	0xbedc3c53	-0.43014774
155	0xbd140c59	-0.03614459
156	0xbe8b8793	-0.27251872
157	0xbe003276	-0.1251925
158	0x3d8d1d7f	0.068903916
159	0xbec4c0e1	-0.38428405
160	0xbb481650	-0.0030530877
161	0xbe91b936	-0.28461617
162	0x3d59af41	0.05314565
163	0xbe427bbb	-0.18992512
164	0x3de8c044	0.11364797
165	0xbd224864	-0.03961982
166	0x3e3f7ff8	0.1870116
167	0x3da0996b	0.07841762
168	0xbddeeeaf	-0.10885369
169	0xbe3022b5	-0.1720074
170	0x3c3a71a5	0.011379634
171	0x3dd5a9f3	0.10432806
172	0x3b699699	0.0035642742
173	0xbe223699	-0.1584114
174	0xbe929e59	-0.28636435
175	0x3a83d9c0	0.0010059401
176	0x3e817fb6	0.25292748
177	0xbeb11901	-0.3458939
178	0x3f0d6615	0.5523389
179	0xbc7c1478	-0.0153857395
180	0x3c056ad2	0.008143144
181	0x3e97bbc3	0.29635438
182	0x3b104bec	0.002201791
183	0x3de3945a	0.1111228
184	0xbe20b69c	-0.1569466
185	0xbe8c8bc7	-0.27450392
186	0xbf33451e	-0.7002734
187	0x3eb98514	0.36234343
188	0x3ea9869d	0.33110514
189	0x3e679b49	0.2261783
190	0xbd998bd3	-0.074973725
191	0xbf1ab319	-0.6042953
192	0x3f011809	0.504273
193	0xbe08a11d	-0.1334271
194	0xbe52cfa2	-0.20587018
195	0xbce7a582	-0.028277162
196	0xbd20fd21	-0.039303903
197	0xbe06a028	-0.13147032
198	0x3d1018a7	0.03517976
199	0x3ed4c3d3	0.41555652
200	0x3e48d6a0	0.19613123
201	0x3e87d671	0.26530793
202	0xbc8af8c3	-0.016964322
203	0xbe902bdb	-0.2815846
204	0xbe656551	-0.2240193
205	0xbd2c642c	-0.04208772
206	0x3b42f472	0.0029747752
207	0xbe819104	-0.2530595
208	0x3c16daa7	0.009207404
209	0xbcd48e62	-0.0259468
210	0xbe725639	-0.23665704
211	0xbd3e92a6	-0.046526574
212	0xbec9efcd	-0.39440766
213	0xbed9bae7	-0.42525408
214	0x3d440a30	0.047861278
215	0xbda3ae97	-0.07992285
216	0x3e766a58	0.24064004
217	0xbecb3969	-0.39692238
218	0xbe84bd66	-0.2592575
219	0xbe0bb36a	-0.1364266
220	0xbe93b1e3	-0.28846654
221	0xbefae7df	-0.4900503
222	0x3ebb22a1	0.36549857
223	0x3ea84c2e	0.3287062
224	0x3b6a8cd9	0.0035789518
225	0xbe13fabb	-0.14451115
226	0x3ede313d	0.4339694
227	0xbcba977d	-0.022777313
228	0x3d88b4c7	0.066751055
229	0x3ee54f3a	0.44787008
230	0x3cd64d60	0.026159942
231	0xbe3d85a7	-0.18508016
232	0xbdc3d2f9	-0.09561724
233	0xbd5784d4	-0.05261691
234	0xbc5d6a20	-0.013514072
235	0xbda8769b	-0.08225747
236	0xbd7f21ba	-0.062288024
237	0xbe966a10	-0.29377794
238	0xbcbee529	-0.023302631
239	0x3e2b9158	0.16754663
240	0x3ed7e73f	0.42168614
241	0xbe0529c3	-0.13004212
242	0xbed8a577	-0.4231374
243	0xbcd9d49f	-0.026590643
244	0x3ebb94e1	0.36637023
245	0x3becedb2	0.007230484
246	0xbdb80a53	-0.08986344
247	0x3d0c018c	0.034181163
248	0x3d494728	0.049140126
249	0xbe150940	-0.1455431
250	0x3c19b141	0.0093806395
251	0xbe49d29e	-0.1970925
252	0x3eeb72b1	0.4598594
253	0xbd8e71ff	-0.06955337
254	0xbd2ad606	-0.041708015
255	0x3bbe66bf	0.005810588

linear2.bias f4 [3]
0	0x3e9d6e91	0.30748418
1	0x3d8458f0	0.06462276
2	0x3c2c9f39	0.0105360085
