NN/model/model.pth (torch, 16799 bytes, 4 tensors)

linear1.weight f4 [256, 11]
-0.028194917 0.7751178 -0.73322946 0.30655476 -0.27818567 0.020234268 -0.30517855 0.25483933
-0.24202079 -0.34068045 0.2816778 0.046176165 -0.058583736 0.06752685 -0.22961678 -0.24106504
-0.2622462 -0.16172539 -0.068272874 -0.25409225 0.13063246 -0.1339339 0.072052576 -0.504437
-0.4024783 0.15105598 0.1442636 0.044771966 0.11204573 0.3158459 0.24742578 0.2705827
0.24592742 0.37573 0.37429044 -0.73511964 -0.11422162 0.028932257 -0.12343484 0.02953828
0.31830883 0.25736937 0.2467907 0.09982219 0.259852 0.33402437 -0.64211476 0.30089617
0.009735157 -0.13535415 -0.43222263 -0.09281999 0.12322988 0.3741034 0.38855252 0.028692326
0.095662355 -0.10714371 -0.1783528 0.32464576 -0.18215661 -0.42500496 0.19054021 -0.3292286
-0.2698812 0.4013032 0.25823036 0.2600786 0.29445267 0.06766951 -0.369743 -0.054564655
-0.27770343 -0.1935161 0.31921405 0.08112402 0.0598705 -0.22060698 -0.0460737 -0.0386848
0.29916918 -0.2541822 0.28808278 -0.6600948 0.15559615 -0.61827725 0.17499055 -0.80300856
-0.14000688 0.44027504 0.058147673 -0.60108376 -0.27132943 -0.12334294 0.38980907 -0.32505685
-0.42251807 0.11400384 0.42994428 0.23711365 0.113605134 -0.11987456 -0.3311185 -0.22031856
-0.047149934 -0.47641027 -0.03981195 0.09002148 -0.29380447 0.12498391 0.05699315 -0.20971107
0.19022253 -0.15508603 -0.22758043 0.014265692 -0.23270154 0.12915537 -0.1896991 0.05898108
0.10694468 0.757459 -0.15435493 -0.16958328 -0.11665241 -0.48357117 0.127862 0.048488062
0.2508933 0.5249465 0.010783521 0.124667026 0.5357563 0.104440086 0.07703268 -0.46001014
0.04242298 0.24076112 -0.121179625 0.3485722 0.030071925 -0.34270918 0.015356128 0.3549168
0.26948932 -0.6270974 -0.062562436 -0.089403816 -0.4118324 -0.020095471 -0.359145 -0.11656866
0.12046829 -0.21485195 -0.093096934 -0.008430362 -0.04778996 -0.14976853 0.19529372 -0.26242575
-0.19898415 -0.006271137 -0.06698306 -0.17585158 0.13162695 -0.15187006 0.18276641 -0.08610705
0.31620413 -0.20898625 -0.0034556084 -0.24685702 -0.25166702 0.2327025 -0.39637348 0.32841474
0.040459163 0.7940975 -0.2601519 -0.13439618 -0.406959 -0.054090317 0.27238035 -0.42034173
-0.18366669 0.017459534 0.3588624 -0.18785581 -0.052494105 0.20090732 -0.52157986 0.4151399
-0.012794094 -0.88819814 -0.5677078 0.4473788 -0.65736777 -0.40089747 -0.20761581 -0.16837904
-0.43081093 -0.14639442 0.45448062 -0.48121506 0.3836225 -0.5977957 0.0021340193 -0.35874903
0.21599337 0.32183278 0.6095157 0.31320634 0.029566538 -0.055217672 -0.099422194 -0.047528304
0.37777603 0.45876408 0.42460254 0.38176075 0.0847511 -0.72880226 0.03033544 0.14691538
-0.3697884 -0.43829805 0.17541075 0.05207781 0.2910031 0.37689614 -0.047024276 0.19470288
0.39640746 0.48880625 0.03424594 -0.19678381 0.050126556 -0.23315509 -0.16948265 0.38063404
0.114626914 0.21198894 -0.26339585 0.11859035 0.38739675 0.25906077 0.23510303 0.34280226
-0.31087565 0.11998035 -0.105185516 -0.17939147 -0.85391134 0.1766266 -0.34622684 -0.47859225
00000000: 07f9 e6bc 1f6e 463f edb4 3bbf bff4 9c3e
00000010: 5a6e 8ebe 56c2 a53c 5d40 9cbe 4d7a 823e
00000020: 4cd4 77be ab6d aebe 1338 903e 3823 3d3d
00000030: 80f5 6fbd 844b 8a3d a920 6bbe c1d9 76be
00000040: 2245 86be 579b 25be a6d2 8bbd 6118 82be
00000050: 84c4 053e f825 09be 4d90 933d c922 01bf
00000060: a311 cebe 6bae 1a3e d6b9 133e cf62 373d
00000070: 3b78 e53d 8eb6 a13e 2f5d 7d3e d189 8a3e
00000080: 66d4 7b3e af5f c03e ffa2 bf3e cd30 3cbf
00000090: 06ed e9bd 5703 ed3c 68cb fcbd 43fa f13c
000000a0: 60f9 a23e ebc5 833e b4b6 7c3e 946f cc3d
000000b0: 520b 853e 3e05 ab3e a261 24bf 100f 9a3e
000000c0: 3580 1f3c 479a 0abe 494c ddbe 6818 bebd
000000d0: f35f fc3d 7b8a bf3e 5bf0 c63e 2b0c eb3c
000000e0: a0ea c33d 296e dbbd 1ea2 36be f837 a63e
000000f0: 4387 3abe 409a d9be f91c 433e a790 a8be
00000100: de2d 8abe 9d77 cd3e c536 843e 0629 853e
00000110: 80c2 963e 5096 8a3d f44e bdbe 307f 5fbd
00000120: 252f 8ebe 1629 46be 0670 a33e 5a24 a63d
00000130: c53a 753d cce6 61be c7b7 3cbd f473 1ebd
00000140: b42c 993e 2b24 82be 967f 933e f9fb 28bf
00000150: 9954 1f3e 6b47 1ebf b930 333e f891 4dbf
00000160: f75d 0fbe bb6b e13e 412c 6e3d a0e0 19bf
00000170: b1eb 8abe 399b fcbd 0e95 c73e da6d a6be
00000180: 4a54 d8be d87a e93d a821 dc3e eccd 723e
00000190: cfa9 e83d cb80 f5bd 5d88 a9be 309b 61be
000001a0: 4a20 41bd 0cec f3be db11 23bd 2f5d b83d
000001b0: 8a6d 96be 90f7 ff3d a671 693d 80be 56be
000001c0: b2c9 423e dfce 1ebe d80a 69be a6ba 693c
000001d0: 5049 6ebe 4e41 043e 7b40 42be 2596 713d
000001e0: d005 db3d d5e8 413f 380f 1ebe 3da7 2dbe
000001f0: 75e7 eebd a496 f7be 42ee 023e 6b9b 463d
00000200: 1675 803e e562 063f 5ead 303c 6d51 ff3d
00000210: 5327 093f afe4 d53d 4fc3 9d3d 7386 ebbe
00000220: b8c3 2d3d 158a 763e 062d f8bd 0e78 b23e
00000230: 6659 f63c 9477 afbe 4598 7b3c a8b7 b53e
00000240: 81fa 893e 7589 20bf bc20 80bd 5919 b7bd
00000250: b2db d2be 429f a4bc dae1 b7be 8dbb eebd
00000260: 14b8 f63d 2602 5cbe 9ba9 bebd 801f 0abc
00000270: 68bf 43bd ec5c 19be 14fb 473e ab5c 86be
00000280: 80c2 4bbe 1c7e cdbb 6a2e 89bd 7012 34be
00000290: 37c9 063e d383 1bbe 1e27 3b3e e558 b0bd
000002a0: 82e5 a13e 7e00 56be 7d77 62bb 16c8 7cbe
000002b0: 80da 80be 9049 6e3e 77f1 cabe fa25 a83e
000002c0: 82b8 253d f949 4b3f a132 85be 279f 09be
000002d0: ee5c d0be cf8d 5dbd 7075 8b3e 0837 d7be
000002e0: 1f13 3cbe 4c07 8f3c d0bc b73e 465d 40be
000002f0: 0f04 57bd a6ba 4d3e 4286 05bf 388d d43e
00000300: 529e 51bc f460 63bf 4c55 11bf d60e e53e
00000310: 4149 28bf 6f42 cdbe 3d99 54be 8e6b 2cbe
00000320: 4093 dcbe 6be8 15be afb1 e83e d261 f6be
00000330: 2b6a c43e 2409 19bf e7da 0b3b f4ad b7be
00000340: 5e2d 5d3e 44c7 a43e 3909 1c3f 955c a03e
00000350: 8635 f23c ed2b 62bd dd9d cbbd 0aad 42bd
00000360: dc6b c13e 20e3 ea3e 8165 d93e 2576 c33e
00000370: fc91 ad3d c992 3abf 0782 f83c fc70 163e
00000380: e854 bdbe 9a68 e0be e09e 333e 8b4f 553d
00000390: 5cfe 943e 88f8 c03e 879c 40bd 3160 473e
000003a0: ebf5 ca3e d044 fa3e 7945 0c3d b281 49be
000003b0: 8151 4d3d 35c0 6ebe dc8c 2dbe 77e2 c23e
000003c0: 84c1 ea3d a113 593e d2db 86be 7fdf f23d
000003d0: de58 c63e 9da3 843e d9be 703e c783 af3e
000003e0: 182b 9fbe 42b8 f53d 816b d7bd 66b2 37be
000003f0: ef99 5abf 9add 343e a544 b1be 0b0a f5be

linear1.bias f4 [256]
0.035301294 -0.11919227 -0.4519262 -0.22554208 -0.31331137 -0.054668967 -0.32086962 0.31615952
-0.15516442 -0.3698606 -0.31694886 -0.09709568 -0.0107744755 0.13382259 -0.3303495 -0.27877405
0.11323126 -0.0019703978 0.21568653 -0.4577427 -0.25371036 -0.28663284 0.53578496 0.24251407
-0.0054439707 -0.32215416 0.050601825 -0.22104514 -0.20599584 -0.25493777 -0.2379703 0.000505831
0.04310521 -0.054053772 -0.16484594 -0.4869178 -0.12636232 -0.37144333 0.43115413 0.14745131
-0.10223903 -0.25002435 0.012073639 -0.31767875 0.13108324 -0.29786924 -0.06429263 -0.14120221
-0.087539844 -0.07521095 -0.3159956 -0.19764867 -0.047173355 0.12979981 -0.35511786 -0.024176177
0.639275 -0.04276674 -0.40377018 -0.19525509 -0.48776698 -0.063894585 -0.43275863 -0.17730434
0.0035425972 -0.15747674 -0.47922042 0.38337964 0.20805421 -0.043659817 -0.36524224 -0.20988373
-0.12339567 -0.26009503 -0.2650652 -0.24766941 -0.18487738 -0.044155963 0.22396444 -0.18596302
-0.045502853 0.03868663 -0.22095725 -0.18352729 -0.08606412 -0.3006791 -0.24908772 -0.23724663
-0.25984713 -0.21268952 -0.3082906 -0.3997817 -0.023430476 0.12301546 0.03249014 -0.4749418
-0.33439907 1.1089313 0.44699326 -0.4504042 0.19662304 -0.08579214 0.031521086 -0.26312727
-0.16592845 -0.2218608 -0.23691969 -0.26439616 -0.25121027 -0.41356277 -0.3621808 -0.3432413
0.085563436 -0.20231326 0.07180343 0.24878126 -0.27642632 -0.3366385 0.5261547 -0.34996882
-0.15211947 -0.30056348 -0.07050048 -0.10438214 0.35975796 -0.4400208 -0.33583066 -0.3418636
0.16201732 -0.11250531 -0.39417034 -0.45359188 -0.40786755 0.18070339 -0.23201343 0.09710439
-0.36783215 -0.21640538 -0.043324947 -0.37017724 0.66905063 -0.16031319 -0.3900524 -0.24512418
-0.3216935 -0.03027684 -0.21459831 -0.2380998 -0.36866084 -0.16869274 1.1669054 -0.33656058
-0.209149 -0.20473307 -0.05764908 -0.4305983 0.6086498 -0.051608007 0.21399996 0.018745814
-0.10324625 -0.10624663 0.10618666 -0.38390246 -0.003903425 -0.29466426 -0.43733922 0.2509262
-0.3944729 -0.2596717 0.21274972 0.34855098 -0.3463753 0.029250091 -0.055354036 -0.16940854
0.46034837 0.045703266 -0.3596772 0.036191378 -0.08404733 -0.1385516 -0.2896219 -0.08978913
-0.2929296 -0.56103194 0.10983482 0.33228272 -0.07258419 0.10004961 -0.20942192 0.08605764
0.09863199 -0.44279125 -0.09522266 -0.37597978 0.49262834 -0.29724768 0.17968197 0.074647576
-0.2744555 -0.004035128 -0.21137673 -0.20124984 -0.011703063 -0.15414746 -0.3921532 -0.40305004
0.28267115 -0.12041236 -0.28332812 -0.31074658 0.5356848 -0.40881294 -0.18718247 -0.026587382
-0.12188316 -0.16746624 0.18140565 0.081157014 -0.036200073 -0.44101888 -0.36375812 0.043368347
-0.23375693 0.41891614 -0.28023705 0.8400384 -0.0066637215 -0.22460485 -0.23372304 0.08455613
0.31586424 -0.27098173 -0.13630806 -0.21472701 -0.35484183 -0.029753713 -0.26720932 -0.39797428
-0.3455422 -0.30300477 -0.5446195 -0.31660804 0.19983071 -0.025368571 -0.20014845 -0.23280941
-0.15468879 -0.25382397 -0.036209505 -0.22992715 0.033114836 -0.30645216 -0.31550962 -0.25786352
00000000: 1798 103d 141b f4bd df62 e7be 81f4 66be
00000010: 596a a0be 91ec 5fbd 0649 a4be a9df a13e
00000020: 6ce3 1ebe 5e5e bdbe 1f47 a2be 1ada c6bd
00000030: 6d87 30bc ca08 093e 9223 a9be 79bb 8ebe
00000040: cae5 e73d ca21 01bb eedc 5c3e 405d eabe
00000050: 53e6 81be 8ac1 92be 3429 093f 9c55 783e
00000060: 5663 b2bb 64f1 a4be dc43 4f3d a859 62be
00000070: 93f0 52be 3487 82be 7cae 73be be99 043a
00000080: 178f 303d 7d67 5dbd 60cd 28be 4a4d f9be
00000090: 2065 01be d22d bebe 3cc0 dc3e 7afd 163e
000000a0: b262 d1bd 3103 80be 83d0 453c caa6 a2be
000000b0: af3a 063e 5182 98be dbab 83bd 5097 10be
000000c0: 1748 b3bd 3308 9abd 2dca a1be 6a64 4abe
000000d0: d938 41bd 3eea 043e 02d2 b5be 1e0d c6bc
000000e0: 87a7 233f 2d2c 2fbd f7ba cebe f3f0 47be
000000f0: 98bc f9be 2adb 82bd 8a92 ddbe 458f 35be
00000100: eb2a 683b 9541 21be 615c f5be 564a c43e
00000110: 2a0c 553e a3d4 32bd 0801 bbbe c3eb 56be
00000120: deb6 fcbd 2d2b 85be a0b6 87be 0d9d 7dbe
00000130: 7f50 3dbe e2dc 34bd ef56 653e 176d 3ebe
00000140: 3361 3abd df75 1e3d 9e42 62be 94ee 3bbe
00000150: 6342 b0bd 9cf2 99be da10 7fbe c8f0 72be
00000160: af0a 85be 48cb 59be 44d8 9dbe 30b0 ccbe
00000170: 45f1 bfbc 88ef fb3d 6214 053d 922b f3be
00000180: 5b36 abbe 76f1 8d3f 4ddc e43e 619b e6be
00000190: 8d57 493e cab3 afbd 411c 013d 9eb8 86be
000001a0: 26e9 29be 7a2f 63be 139b 72be ef5e 87be
000001b0: a29e 80be 80be d3be c36f b9be 53bd afbe
000001c0: e23b af3d 352b 4fbe ad0d 933d 84c0 7e3e
000001d0: c087 8dbe e25b acbe 13b2 063f 1d2f b3be
000001e0: 35c5 1bbe 75e3 99be 8e62 90bd 4ec6 d5bd
000001f0: 3232 b83e 684a e1be fff1 abbe bf08 afbe
00000200: dee7 253e 2f69 e6bd b2d0 c9be 323d e8be
00000210: 04d4 d0be 4f0a 393e ee94 6dbe abde c63d
00000220: 7f54 bcbe 5f99 5dbe 8075 31bd df87 bdbe
00000230: e746 2b3f 2429 24be f3b4 c7be d501 7bbe
00000240: 03b5 a4be 2307 f8bc a9bf 5bbe 6fd0 73be
00000250: 1dc1 bcbe cabd 2cbe 285d 953f ab51 acbe
00000260: 282b 56be 8ca5 51be 7121 6cbd 6177 dcbe
00000270: 79d0 1b3f eb62 53bd ce22 5b3e d290 993c
00000280: c572 d3bd d597 d9bd 6478 d93d dd8e c4be
00000290: 9bd0 7fbb 3cde 96be edea dfbe 6679 803e
000002a0: 5af8 c9be b0f3 84be 10db 593e 4675 b23e
000002b0: 1a58 b1be e39d ef3c eaba 62bd 6f79 2dbe
000002c0: c8b2 eb3e 5933 3b3d 9c27 b8be 693d 143d
000002d0: 0221 acbd 78e0 0dbe 5249 94be 5de3 b7bd
000002e0: defa 95be ca9f 0fbf 14f1 e03d f620 aa3e
000002f0: 05a7 94bd cfe6 cc3d b372 56be fd3e b03d
00000300: 92ff c93d 89b5 e2be 1904 c3bd 6c80 c0be
00000310: c839 fc3e d930 98be 8dfe 373e d4e0 983d
00000320: 6e85 8cbe 1b39 84bb 2473 58be 7014 4ebe
00000330: 34be 3fbc d5d8 1dbe 4ec8 c8be 935c cebe
00000340: 46ba 903e c19a f6bd 6210 91be 2d1a 9fbe
00000350: a422 093f ee4f d1be c3ac 3fbe c8cd d9bc
00000360: e19d f9bd 457c 2bbe 67c2 393e a635 a63d
00000370: 8746 14bd 3acd e1be 813e babe 02a3 313d
00000380: fa5d 6fbe 2d7c d63e 3b7b 8fbe c20c 573f
00000390: 595b dabb d0fe 65be 1855 6fbe c42b ad3d
000003a0: f5b8 a13e 1ebe 8abe 5794 0bbe 66e1 5bbe
000003b0: d4ad b5be 0fbe f3bc a9cf 88be 49c3 cbbe
000003c0: e8ea b0be 7123 9bbe 2f6c 0bbf 731a a2be
000003d0: 6ca0 4c3e c0d1 cfbc b7f3 4cbe 9765 6ebe
000003e0: bd66 1ebe 37f5 81be 6b50 14bd 0672 6bbe
000003f0: 6ca3 073d 4ce7 9cbe 7a8a a1be b006 84be

linear2.weight f4 [3, 256]
0.14119026 -0.026494134 -0.01775347 -0.055390567 -0.19356859 -0.1703855 0.0066289995 0.33541322
0.28189582 -0.0059979004 -0.048121233 -0.37518463 -0.2717435 -0.020173652 -0.033819895 -0.08616852
0.31413305 0.3971279 0.2568837 -0.2300659 -0.121482015 -0.051022947 0.41143063 0.39709798
0.29448634 0.10838937 0.50698525 -0.054761603 -0.13277061 0.015882317 -0.00082873873 0.3698415
0.3338562 -0.44993937 -0.06664847 0.009604468 -0.4598949 -0.10936407 0.37235817 0.021042252
0.11157482 0.016919203 0.36321422 -0.1148078 0.41065407 -0.033690635 -0.4268149 -0.12757613
0.23988214 0.24533136 -0.051023513 -0.013511367 0.013160687 0.22011928 -0.027915062 -0.16283625
0.42268363 -0.15906982 -0.012692787 -0.04998049 -0.03522801 -0.008637928 -0.09740131 -0.051533878
-0.28722966 0.1287537 0.078823246 0.23874407 0.108325675 -0.3420091 -0.07118275 0.0049757264
0.032644343 -0.07845089 -0.08809768 -0.45054686 -0.15993556 0.29323772 0.43337467 0.29140636
0.17257893 -0.005257592 -5.5095807e-05 -0.055793516 -0.0036768564 -0.017126933 -0.044677258 0.025640743
0.29582265 -0.010619439 -0.14675042 -0.11406451 0.0030642434 0.19776958 0.092509806 -0.0712626
0.043825727 0.2740816 0.3784266 -0.0105811395 0.3692565 -0.01649988 0.176159 -0.00013193669
-0.0014086884 -0.0015276104 -0.34113693 -0.34313053 -0.07215487 -0.120891616 -0.02690336 -0.066965334
0.20828436 -0.44941688 0.06713413 0.5434887 0.04399744 -0.043457486 0.29513577 0.025846805
-0.1937589 -0.37116548 0.005695028 -0.06308731 0.30303082 0.01548477 -0.007602044 -0.051056787
0.49242947 0.07063352 0.033882037 -0.2322582 -0.24979034 0.2869417 -0.103523664 0.23723176
-0.37693065 -0.06840147 0.0013366151 -0.16673982 0.11145438 0.07078117 -0.11963129 -1.111972
-0.0075431466 0.6079908 -0.48101673 -0.23346972 0.015464718 -0.091906585 0.24451292 -0.015795989
0.0074454616 -0.113659844 0.05987092 -0.083443925 0.3046136 -0.54898095 0.041563645 -0.9058665
-0.2665801 0.149773 -0.24010529 -0.009494907 0.016774159 0.0434395 0.019771181 0.20113848
-0.09395663 -0.144587 0.1285999 0.35642996 0.010397092 0.3549935 -0.96889085 0.14260015
0.35528305 0.19512649 -0.35291252 0.26871115 -0.056779187 -0.09266909 0.0056815003 -0.015141218
-0.027283205 -0.17218605 -0.18660179 0.29517406 0.32073 -0.56082195 -0.022612127 -0.07317206
0.08351268 -0.014881914 -0.115433164 -0.14547901 0.2803236 0.0051671714 0.35425165 0.34796152
-0.035563715 0.09821929 -0.281283 0.0008076966 0.0153791625 -0.00743483 0.00067993195 -0.20889433
0.34731176 -0.06942133 -0.02376867 0.12976775 0.27478924 -0.18358774 -0.0031605307 0.1390987
-0.048368257 0.040636085 0.5100256 -0.54972297 -0.29609242 0.21979341 -0.22322725 0.09240521
-0.106128134 0.1235004 -0.088063665 0.41445202 0.040263433 0.017789384 -0.6008341 0.1684689
0.32998788 -0.036750406 0.029804435 -0.13317733 0.012618736 0.027553657 0.008868945 -0.013343068
-0.02469271 0.02331466 -0.24417797 -0.07564364 0.43839914 0.05950833 -0.03171513 0.09434041
0.073692225 -0.03171798 -0.36332947 -0.17151016 0.099211626 0.032072008 0.0066469545 -0.34750897
00000000: 2e94 103e 3a0a d9bc ba6f 91bc 38e1 62bd
00000010: d836 46be 8979 2ebe 1438 d93b 48bb ab3e
00000020: a654 903e 098a c4bb c51a 45bd 3318 c0be
00000030: f721 8bbe 3743 a5bc bb86 0abd 1f79 b0bd
00000040: 0cd6 a03e 5954 cb3e 4386 833e 6596 6bbe
00000050: 90cb f8bd 70fd 50bd 09a7 d23e 6d50 cb3e
00000060: eac6 963e 3ffb dd3d c9c9 013f b44d 60bd
00000070: 05f5 07be a21b 823c b73f 59ba dd5b bd3e
00000080: 33ef aa3e 745e e6be fe7e 88bd 0f5c 1d3c
00000090: 5877 ebbe 45fa dfbd bba5 be3e cd60 ac3c
000000a0: 5781 e43d 249a 8a3c 37f7 b93e 5a20 ebbd
000000b0: 4041 d23e 31ff 09bd 7c87 dabe 51a3 02be
000000c0: aaa3 753e 2538 7b3e 08fe 50bd c85e 5dbc
000000d0: ec9f 573c f366 613e 21ae e4bc 8cbe 26be
000000e0: fd69 d83e 33e3 22be 68f5 4fbc 58b8 4cbd
000000f0: 3f4b 10bd 1986 0dbc 577a c7bd 3015 53bd
00000100: c40f 93be 03d8 033e 156e a13d 5379 743e
00000110: dad9 dd3d d11b afbe 43c8 91bd 6b0b a33b
00000120: 13b6 053d dcaa a0bd 8e6c b4bd 14ae e6be
00000130: 26c6 23be 4123 963e 49e3 dd3e 3733 953e
00000140: 88b8 303e e147 acbb ac16 67b8 be87 64bd
00000150: 6af7 70bb c84d 8cbc 80ff 36bd 890c d23c
00000160: 1176 973e 28fd 2dbc be45 16be a79a e9bd
00000170: 79d1 483b 1c84 4a3e c875 bd3d 20f2 91bd
00000180: 9b82 333d 6c54 8c3e 22c1 c13e 845c 2dbc
00000190: 300f bd3e c22a 87bc 0663 343e 7c58 0ab9
000001a0: bda3 b8ba 193a c8ba 80a9 aebe ceae afbe
000001b0: efc5 93bd 0696 f7bd 6f64 dcbc 1f25 89bd
000001c0: 7f48 553e f819 e6be 9e7d 893d 1322 0b3f
000001d0: a936 343d 7a00 32bd 091c 973e aebc d33c
000001e0: bc68 46be 6709 bebe 5c9d ba3b eb33 81bd
000001f0: db26 9b3e d5b3 7d3c 911a f9bb ec20 51bd
00000200: b71f fc3e 4fa8 903d e4c7 0a3d 18d5 6dbe
00000210: 0ac9 7fbe 06ea 923e 3704 d4bd e2ec 723e
00000220: 0efd c0be 1216 8cbd 5c31 af3a d8bd 2abe
00000230: 3242 e43d b8f5 903d 4001 f5bd 1955 8ebf
00000240: 802c f7bb 49a5 1b3f d347 f6be b012 6fbe
00000250: bb5f 7d3c 8539 bcbd 9861 7a3e 9766 81bc
00000260: 0ff9 f33b 7ec6 e8bd 363b 753d a6e4 aabd
00000270: 50f6 9b3e 048a 0cbf a43e 2a3d dee6 67bf
00000280: 307d 88be 185e 193e 29de 75be 8790 1bbc
00000290: f669 893c 9eed 313d 2cf7 a13c 3ff7 4d3e
000002a0: 556c c0bd 9d0e 14be b1af 033e fd7d b63e
000002b0: 9158 2a3c b5c1 b53e 3b09 78bf c605 123e
000002c0: a9e7 b53e 3dcf 473e f3b0 b4be 8294 893e
000002d0: 4b91 68bd 4bc9 bdbd e12b ba3b df12 78bc
000002e0: 0781 dfbc 8a51 30be 8a14 3fbe 0e21 973e
000002f0: b936 a43e 0792 0fbf 113d b9bc 3cdb 95bd
00000300: b208 ab3d 45d3 73bc 3968 ecbd 73f8 14be
00000310: 9386 8f3e 6051 a93b 7960 b53e 0328 b23e
00000320: 42ab 11bd 3227 c93d 5304 90be 9abb 533a
00000330: e2f8 7b3c e09f f3bb 763d 323a 65e8 55be
00000340: d9d2 b13e c52c 8ebd 84b6 c2bc d6e1 043e
00000350: 2db1 8c3e 6dfe 3bbe e820 4fbb e46f 0e3e
00000360: cb1d 46bd 0672 263d 0a91 023f a5ba 0cbf
00000370: 6d99 97be 8611 613e af95 64be f13e bd3d
00000380: b559 d9bd c7ed fc3d b95a b4bd 0e33 d43e
00000390: 45eb 243d 0bbb 913c 43d0 19bf 1c83 2c3e
000003a0: 2cf4 a83e 9887 16bd 6e28 f43c a35f 08be
000003b0: d1be 4e3c 35b8 e13c 0d4f 113c e29c 5abc
000003c0: 5e48 cabc 63fe be3c ca09 7abe 0deb 9abd
000003d0: da75 e03e 02bf 733d b9e7 01bd 8b35 c13d
000003e0: f3eb 963d b6ea 01bd 5206 babe 5ca0 2fbe
000003f0: 772f cb3d f05d 033d b2ce d93b b2ec b1be

linear2.bias f4 [3]
0.3096004 0.18107814 0.13619395
00000000: f283 9e3e 8c6c 393e 6d76 0b3e
